data/CNN_torch.pth (torch, 45869 bytes, 5 tensors)

model.0.weight f4 [32, 1, 5]
00000000: 6a1d a93e 4fb3 27be d306 81bd 648c 83bd
00000010: 53d2 f2be 1226 d9be b71c 85be d932 c4be
00000020: 0ef1 993e 74ac 3ebe 6cb3 1dbf ace0 c83e
00000030: d525 91be e978 5b3e 8bfb 963e ce34 a2be
00000040: cc04 b33e 50cf b43e 9190 e8bd 993b c53e
00000050: 79c2 d93e 9383 a2be 9fa6 8b3d a7a4 c93d
00000060: 60c7 bb3e c2d4 5dbe 6e00 0bbe 7c0b 1dbe
00000070: f5e9 07bd 245c db3d 661f df3e 8643 aabe
00000080: 3133 323e 3782 9fbe a536 0fbe a565 263e
00000090: 59f4 ec3e 477f 7abe 3eca 34be f4db 09bf
000000a0: 4adc fcbe e1e4 e13e 9b70 39bd 5101 3abe
000000b0: cca0 933e 77ce 29bd 686f a6be 8c1e 5cbe
000000c0: 6452 623e 6767 c93e 78a0 243e b83b 443e
000000d0: 26ad 19bc 5211 a4bd d40e f63d 29b3 4dbe
000000e0: 2796 4b3e dc8d 2abd 7212 48be e760 b33e
000000f0: 18b8 903e 6417 003e ca05 aabe 8c6d b83e
00000100: 22f6 6a3d aba7 513d 1a76 0abd d255 3ebc
00000110: e30d afbe 469a c5be 6575 23be baa3 e6be
00000120: e494 abbe 7e63 31be cbb8 f43e 6d74 0ebe
00000130: 9ef3 d8be 2e6e 50bd a842 d43e ce34 933e
00000140: fd13 9bbe 48ef c2be 4eec 983d ba11 a0be
00000150: 77eb ad3e 8df5 09be f61b 923e c8c2 73be
00000160: ca80 78be 8273 78be 6a22 ffbc 61a8 653e
00000170: 1861 9c3e e328 e3be 490d a13d 7ac5 823d
00000180: dc68 5d3e 92fe cd3e 8218 8cbc f997 59be
00000190: d462 b33e ff71 853e fffc 10b9 79bb 523e
000001a0: 05a2 e23e fdb0 efbe 2bcd 9e3e 1efe c13e
000001b0: 7b92 4d3e 4871 c7be 6c94 5b3e 12f1 943e
000001c0: 6e9a 683e 2326 99bd 2c9b e6be a4c7 be3e
000001d0: 0b14 143e 5ce0 473e 1efb 83be 0c29 c83e
000001e0: a9f0 95be f732 f43c dbfa cabe c09b 083e
000001f0: ff89 17be 0b33 d83e 303b 163e ef71 e7bd
00000200: e26f a9be a0e8 cfbe e112 b7be 6b6e d4be
00000210: 270d acbe 57a4 59bd 5bc7 9dbe 1c17 a1bd
00000220: f084 3bbe 0990 1ebd 5794 ea3d 61a9 d1be
00000230: 9483 b8be f161 c0bd 46be f83e 526a 1dbd
00000240: 8eba 083e cd55 5abe c9da d83e 87a9 93be
00000250: da74 903e c0e0 cc3e 53c8 8ebd 0d89 823e
00000260: 57b4 febe a72c 1e3d dbdc 903d df93 1ebe
00000270: 75fb a53e d688 963e 5d51 a4bd 7c93 963e
0.33030254 -0.16376995 -0.0630013 -0.06423262 -0.4742609 -0.42411858 -0.2599847 -0.38320044
0.30066723 -0.18620473 -0.616019 0.3923391 -0.28349176 0.21432842 0.29488787 -0.31680912
0.34964597 0.35314417 -0.11355699 0.38522032 0.42531183 -0.31741008 0.0681889 0.09845858
0.3667555 -0.21663192 -0.13574383 -0.15336412 -0.033182103 0.10710934 0.43578643 -0.3325464
0.1740234 -0.31154034 -0.13985689 0.16249712 0.46280172 -0.24462615 -0.17655274 -0.53851247
-0.49386817 0.44119933 -0.045273405 -0.18164565 0.28833616 -0.041456666 -0.3250687 -0.21496028
0.22101742 0.39336702 0.16076839 0.19163406 -0.009379661 -0.08011116 0.12014547 -0.20087875
0.19881497 -0.041639194 -0.19538286 0.35034868 0.28265452 0.12508923 -0.33207542 0.36021078
0.057363637 0.05118529 -0.033804037 -0.011617141 -0.34190282 -0.38594264 -0.15962751 -0.45046788
-0.33512032 -0.1732311 0.47797236 -0.139116 -0.42373365 -0.050886326 0.41457105 0.28751224
-0.30288687 -0.38073182 0.074669465 -0.31263524 0.33968708 -0.13472576 0.28536958 -0.23804772
-0.24267879 -0.24262813 -0.03114434 0.22427513 0.30542827 -0.44367132 0.07863862 0.06385322
0.21622032 0.40233284 -0.01710153 -0.21249379 0.35036337 0.26063535 -0.00013827159 0.20579328
0.44264236 -0.4681472 0.31015906 0.3788919 0.20075409 -0.38953614 0.21443337 0.29090172
0.2271516 -0.07477977 -0.45040262 0.3726169 0.14460771 0.1951918 -0.25777525 0.39093816
-0.29285172 0.029809458 -0.39644513 0.13340664 -0.14798735 0.42226443 0.14671016 -0.11301028
-0.33093172 -0.40607166 -0.3575659 -0.41490492 -0.33603784 -0.053135242 -0.3081616 -0.07865736
-0.1831243 -0.03871158 0.11454075 -0.40949538 -0.36037886 -0.09393681 0.48582667 -0.038431473
0.13352415 -0.21321793 0.4235442 -0.28840277 0.2821415 0.4001522 -0.069718026 0.25495186
-0.49746963 0.038616803 0.07073375 -0.15486096 0.3241841 0.29401273 -0.08023331 0.29409397

model.0.bias f4 [32]
00000000: 7570 363e fbb5 b7be ddcc 65bd d4f6 b0be
00000010: c17b 60be 29bf 503e 516e 5cbd 5af9 23be
00000020: 5092 fe3d de83 ab3e a9d8 f4be 1d73 a13d
00000030: dff0 c8be f31d 3d3d 881c a3bc 01a4 423e
00000040: 87d2 c8bd a22b d73d ee13 c7bd e7f5 39be
00000050: 4a27 953e 9429 d73c ae11 d13e 3699 8cbe
00000060: 00e0 a53d c2de a2be 92d1 11be b4f1 dbbc
00000070: 1434 333e 6808 64bd 39fc e33e c1e4 cb3e
0.17816336 -0.35881028 -0.056103576 -0.34563315 -0.21922208 0.20385422 -0.053816143 -0.16013089
0.12430251 0.33499044 -0.4782155 0.07883284 -0.3924627 0.04617114 -0.019911066 0.19007875
-0.0980578 0.10506369 -0.09720598 -0.1816021 0.29131538 0.026264943 0.408338 -0.2746064
0.08099365 -0.31810576 -0.14240101 -0.026848651 0.17500335 -0.05567208 0.44528368 0.39822963

model.2.weight f4 [64, 32, 5]
00000000: 1b4b 88bd dce2 82bb c52c 883d 4ef6 e93c
00000010: a740 7e3d 49de d23d 711a 933d 3e08 eabd
00000020: 1c21 0cbe d8fd e23c 6b2d f5bd 0f07 a6bc
00000030: a799 4abd 9e54 51bd cdbf 1d3e 2532 14bc
00000040: ff4e b13d 29e0 e03c 3f07 083d f015 5bbd
00000050: 2e21 d6bc b20d 31bb 5625 2ebd 364f a03c
00000060: a4ee 543d 094a 05be e0b0 d6bd 87d9 d7bc
00000070: ab87 993c 596e 0fbe d28f 99bd b88c afbc
00000080: 5f97 533d 8812 833d 568e 9c3c 0d9f 40be
00000090: cfc5 5ebc 7c0a 35bd 36c1 f33d be7d 523e
000000a0: aadd c3be 1c20 debd 97c0 e13d 760d 923e
000000b0: e529 e8bd 2688 9b3d d8c2 003c eb21 113d
000000c0: c4a3 b3bd 275a 79bb 9e3f 79bd 702d 99bc
000000d0: ecc1 423c a5b6 563d f3bf 39bd 2795 0fbb
000000e0: f7ce 04bd 3d0f a5bd 0ea3 5abd b4f7 0c3d
000000f0: dd87 bf3b 779b 653d 4163 36bd 982e fcbc
00000100: ff75 893c 68e6 233d 5962 8a3d a433 343d
00000110: 5bb1 453d 23ec 973c 7855 fbbd 5a83 3c39
00000120: b6bf 0fbd 55da d7bd 87e0 0ebe 0a7d 043b
00000130: 2ca3 82bd 2da9 91bd e4a7 6abb a006 1b3d
00000140: 9c62 e0bd 89ed 323d 79b5 ebbd 3f84 94bc
00000150: b345 40be ec8c 803d 916b 3bbd 0369 443d
00000160: 46ed 25bd f95e fe3c 2c98 763d 74d5 80bd
00000170: f3c0 8dbc b019 9f3d f5f8 c6bc 7b40 46bd
00000180: d7c2 533d e0df 55bd b980 ccbc 1d75 26bd
00000190: c4bb a43d 9a78 3cbd 500b 523d 9e33 c63c
000001a0: 9f67 b83b 281b e13c 71bb 1e3e 8362 823d
000001b0: 00d3 74bc cee3 57bd 5c28 983d 1d88 6e3d
000001c0: dec8 dcbc 1dd4 9b3d 2e93 8cbd 9844 53bd
000001d0: afbf 5b3d 5640 1dbc c7d4 443d 80ce f4bb
000001e0: 6359 843c a294 6bbd 1703 0bbd 8511 ddbc
000001f0: 53ed 48bd be55 933e feae ab3e 53fb 07bf
00000200: 47fd 48bf a956 d1be e750 e6bc 859b 053e
00000210: b8ec 2a3d 7401 dcbc c208 eebc ce49 a73d
00000220: 8bc9 b43e 3bed 773d 9507 80bd 9a26 f63d
00000230: ca29 0dbb 36ae 5cbd dbbe 0c3d 6365 8b3d
00000240: 0863 83bd 8a8d 26bd 4cb4 dbbc e7d7 e23c
00000250: 8803 47bd 5c75 88bb c4eb 81bd 2c11 6b3d
00000260: 64f0 10bd f4b2 11bd bd34 0ebd e8cc 3dbd
00000270: 32bb 803d 9b56 9ebc c6f7 aa3c 45a6 87bd
00000280: 1b4c 85bd 126c f53d dc34 053e b74f 99bc
00000290: 0664 acbb 372c 86bd 3cd5 54bd d2de 99bc
000002a0: 69f0 963d 7a85 9e3c 45d1 dabe e7fe 0bbf
000002b0: 7f86 093f 754f b53d d3ff 9a3c e969 b53d
000002c0: c0c7 78bd f7c0 16be ebc2 4d3d 40dd 1b3e
000002d0: cc83 09be 9ea6 493c f807 f13c 03da 163d
000002e0: 7ddf 42be 62ab d93d 185b 0439 98e5 04bd
000002f0: a068 2ebd 7dba 87bd c1bb efbd 8305 513e
00000300: 84fe 5d3e 1326 aebc 6e95 1a3d dec1 d6bb
00000310: 2ca8 833d 9352 9537 2e47 0bbe 4666 f43c
00000320: f362 88bd 6518 e73e 62bb ef3e 5eb0 a8bd
00000330: 48d9 9b3d 9474 193d 7465 00be 0e73 f4bd
00000340: 2882 e2bd bb97 dbbe 0d13 f33d 582c 133e
00000350: 6ad9 c53d 560d e8bd dc09 7abd 424f 29be
00000360: 464a 8cbd a1dd 30bd b6bc 8cbe c8ab b5be
00000370: fb59 683d 8c9e 253e 2bd5 e33a 1d67 4c3c
00000380: 778f bf3c 7406 3a3c fb9f 833d 7cad 09bd
00000390: 01a1 7ebd cf1f bd3d 4ffb 7c3d b982 9fbd
000003a0: b5d2 473d 7eeb c83b cf8b 16bd ecf1 f83e
000003b0: bccf 013f cf6e fdbe fa3b 6d3e 616a 09be
000003c0: 932c e6bd d2cf 013d 47e1 5ebd bff3 15bc
000003d0: 2203 33bb b971 7ebd 1926 8bbd a5a5 d73d
000003e0: ade0 8ebd 11c2 37bd 39e3 6d3e ef99 fd3d
000003f0: 8efa 0c3d 78bd 93bd 9aa8 10ba 2935 003e
-0.0665495 -0.003994329 0.06649164 0.02855983 0.062073376 0.10296304 0.07182778 -0.11427353
-0.13684505 0.027708933 -0.119715534 -0.020267038 -0.04946294 -0.051106088 0.15405197 -0.0090451585
0.086576454 0.027450638 0.033210035 -0.053487718 -0.026138868 -0.002701622 -0.042516075 0.01956902
0.051985398 -0.13016523 -0.10482955 -0.026348842 0.01874145 -0.14006938 -0.07498135 -0.021429405
0.05165803 0.06400019 0.01911084 -0.18810673 -0.013596966 -0.04419945 0.119020864 0.2055578
-0.38255054 -0.10845968 0.11023062 0.28525895 -0.11336116 0.07594328 0.007858954 0.035432737
-0.0877147 -0.003804812 -0.060851686 -0.018698424 0.011887055 0.052420277 -0.045349073 -0.002190897
-0.03242394 -0.08059547 -0.053378157 0.034415916 0.0058450536 0.056056466 -0.04452825 -0.030783936
0.016779898 0.040014654 0.067570396 0.04399456 0.048264842 0.018545216 -0.12272161 0.0001797801
-0.03509494 -0.105396904 -0.13952838 0.002021613 -0.06378779 -0.07112346 -0.0035805637 0.037848115
-0.10956308 0.043683562 -0.115092225 -0.018129466 -0.18776588 0.06276879 -0.04575688 0.04795171
-0.040509485 0.031051146 0.060203716 -0.06290713 -0.01730392 0.077685714 -0.024288634 -0.048401337
0.051699486 -0.052215457 -0.024963723 -0.04063903 0.08043626 -0.046013452 0.05128032 0.024194535
0.005627587 0.02747877 0.1550119 0.06366446 -0.014942884 -0.052707486 0.07429573 0.058235276
-0.02695125 0.07608817 -0.0686401 -0.051579088 0.0536496 -0.009597858 0.048054483 -0.007470906
0.016155904 -0.057514794 -0.033938494 -0.026985893 -0.049054455 0.28776354 0.33531946 -0.53117865
-0.7851147 -0.4088643 -0.02811475 0.13047607 0.04172966 -0.026856162 -0.02905691 0.08168374
0.35310015 0.060528975 -0.06251446 0.120190814 -0.00215398 -0.053877078 0.0343617 0.06806447
-0.06415373 -0.040662326 -0.02681937 0.02769084 -0.048587352 -0.004164381 -0.06343797 0.057389423
-0.035385504 -0.035571054 -0.034718264 -0.046337992 0.06285705 -0.019328406 0.0208701 -0.0662351
-0.065086566 0.119835034 0.13008446 -0.018714769 -0.005260947 -0.06551402 -0.05196117 -0.018783007
0.07370073 0.019350756 -0.42737785 -0.54685825 0.5372085 0.08853046 0.018920815 0.088580914
-0.06073737 -0.14722048 0.050234716 0.15221119 -0.13429183 0.012307791 0.029422745 0.036829006
-0.19030567 0.10628392 0.00012622436 -0.03244552 -0.042580247 -0.06627367 -0.11705733 0.20412259
0.21679121 -0.02125839 0.037740164 -0.0065538725 0.064285606 1.7800636e-05 -0.13601372 0.029833924
-0.06659498 0.451358 0.4682265 -0.08236764 0.076098025 0.037464693 -0.12538701 -0.119360074
-0.110599816 -0.428892 0.11868868 0.14372385 0.09660609 -0.11330669 -0.06104456 -0.1653414
-0.06850104 -0.04318011 -0.27487725 -0.3548262 0.056726437 0.16173762 0.0017382255 0.012475756
0.023383839 0.011354078 0.06426998 -0.033612713 -0.062165264 0.09234583 0.061763104 -0.07788605
0.04878493 0.0061315885 -0.036754426 0.48622072 0.507076 -0.49498603 0.2316741 -0.13419487
-0.112389706 0.031692334 -0.05441406 -0.009152352 -0.00273151 -0.062120173 -0.06794376 0.10529641
-0.06976447 -0.04486281 0.2323121 0.12382876 0.034418635 -0.07213873 -0.00055182877 0.12520279

model.2.bias f4 [64]
00000000: c3b6 813c 744b adbd f8c4 963c 081e 04bd
00000010: 3e63 bfbc 711a fb3b 682b 573b 0b62 463d
00000020: 717e 763d cf5f 81bd cb0d aabc f5a6 263d
00000030: 450d 9bbd 79bc 15bc 228d c03c c1ff bf3d
00000040: 159a a13c 730f c93b 4114 8b3d c47f 3ebd
00000050: 03fa eabc d3e6 953d f07b 963b 2d35 a53d
00000060: a91e 43bc 33ad ac3d 648f a83c 69f5 9d3d
00000070: 5b2e 0cbd e629 73bc 7854 9bbc fd5b 0dbc
00000080: 8809 53bc a517 be3c 804a 1dbd 86a6 bf3d
00000090: 672a 5cbd d5b6 5f39 123c 2c3d d6b0 54bd
000000a0: a2d3 14bd 35d4 73bd c36e 143e 3f74 6c3d
000000b0: c3d1 bcbb 369a d73c 36fb b0bb 2416 82bd
000000c0: 2925 7c3d f607 b33b 4493 533d 2380 c93d
000000d0: a963 cfbc 709d a93d eb0c b33d dee5 8cbd
000000e0: 6034 1f3d 9133 bb3c a18b ec3c 5d8a 4b3d
000000f0: 36ad 05bd 99ff 4b3d c2e1 883d 8059 9cbd
0.015834218 -0.08461657 0.018404469 -0.032255203 -0.023362752 0.007663064 0.0032832269 0.048433345
0.060179178 -0.06317102 -0.02075853 0.040686566 -0.0757089 -0.009139174 0.023504797 0.09374953
0.019726792 0.006135875 0.067909725 -0.046508566 -0.028683668 0.07319417 0.004592411 0.08066783
-0.011909165 0.08431473 0.020576186 0.07712824 -0.034223896 -0.014841532 -0.018961176 -0.008627889
-0.01288069 0.023204634 -0.038401127 0.09357934 -0.053751376 0.00021335047 0.042049475 -0.051926456
-0.03633464 -0.05952855 0.14495377 0.05772805 -0.0057623102 0.02631865 -0.0054010404 -0.06351879
0.061558876 0.0054635955 0.051654115 0.09838893 -0.025316076 0.08281982 0.08742698 -0.06879781
0.038868308 0.022851737 0.028875174 0.0496925 -0.03263589 0.049804304 0.06683685 -0.07634258

model.4.weight f4 [1, 64, 3]
00000000: 5f8e d13d cbc4 f73d eeb7 963d 8b25 f93e
00000010: f01f 0e3f add1 463e 6389 a33d 4d68 61bd
00000020: 711f 14bd 0038 223e 8e3f c13d a5e3 14be
00000030: 51b9 96be 0f5b 24be a353 733e ba30 54bb
00000040: 59e6 5d3d a582 4f3b 846a bc3d c88a 1a3d
00000050: 5329 203c 504d 423c 7fa4 f43c 35a1 4ebd
00000060: d0cc 943d 33a3 883c 4e4c 093d e117 0abd
00000070: 81ad 4d3a 02db 273d bd1f 8cbd b3a8 3c3d
00000080: 7319 b53d b02e b33d 2bb9 b1bd 6127 22be
00000090: 812e 353d a602 45bd 0643 c93d 1e0b a13d
000000a0: 2a2f 6c3d 989e f3bd d4c7 4f3d 3c49 38bd
000000b0: e7e6 4abd e373 8fbd a2cf 35bd 8b00 773d
000000c0: 1d0c 74bd b28f 2cbd 3d2e 123d 7260 983b
000000d0: 2905 bc3d 769d 823c 081f 5a3e aa70 613e
000000e0: 764c ba3d 02a9 cabc 0746 8c3d 20d8 063d
000000f0: 0b17 633d 70f6 f83d 3f51 98bd 153b 9d3d
00000100: be0b 81bc 5e76 dabc 613b 0ebc 9bdd ec3d
00000110: a23a 53bd 0b37 553d 5cbe 40bd 045a e3bc
00000120: 9be7 a5bd 2c12 c3bd 0d96 b0bc 306b 2abb
00000130: 56ee b73a 2de6 6cbc d0ba 813d 20e5 fd3c
00000140: 4425 48bd 5ba8 273c 6c1a 6d3d e65e 793d
00000150: c69d 953d 9094 80be 6db9 d7be 6993 323d
00000160: 546c 9abc bcb7 663d 8007 913d 63e6 613d
00000170: 7b9c 10bd cd45 b53d 4010 8c3c 2af3 cc3c
00000180: 85ee e13c 78aa 29bd 3793 db3c 132d bcbd
00000190: a011 acbc d63e a7bd b606 9c3c 3a21 483d
000001a0: e70f 57bd 7fe7 3cbd b3be 9e3d 6d1f 053d
000001b0: ba43 c8bd c8ef 833d b999 423c 8865 be3d
000001c0: d777 d43c 8524 43bc 32c9 0abe 7c97 b6bb
000001d0: 2662 5c3e cf5c 9cbd 51e0 95bd a3af c5bd
000001e0: d3a9 cb3e 32e1 38be 7e2f d6bd c48b 943d
000001f0: 4a6a 833d 26f1 1e3c 2f42 72be 01ea 3abe
00000200: 773e 933d 2b20 4cbd c470 5d3c b7af e03d
00000210: fe36 f2bc 400e 883d 6928 6abd 2ec6 3b3d
00000220: 2ce6 6a3d 4a16 563d 8059 febc ccdb 423d
00000230: 67cf 5c3d 3c14 8e3d b693 e8bb 4d2c abbd
00000240: 4c7a 5a3c 0691 aebd 9376 babd 0b88 d3bb
00000250: 0ff7 61bd 77fb 60bd ef8a 56bd 9374 a3bd
00000260: bedc 9abd b1ab 9fbd bc89 85bd 3caf ddbb
00000270: cefc 8a3c c431 ae3d a38e 263d c908 113d
00000280: 6dcb 15bd ba8d 223d 5903 603d f3d6 703d
00000290: 5ee4 a33d ed55 32be 823f f5bc 4cc9 be3d
000002a0: 689c 3bbd 2f35 193d 3754 82bd 8bdd e2bd
000002b0: eac0 64be 33ec 413d 1dbd 80bd 454a 9dbd
000002c0: 5046 7ebc fcf1 273d 9b66 5cbd c542 e539
000002d0: 330f c63b a75e 0e3d 7d87 053d 5831 3b3d
000002e0: c776 a13d e190 75bd b471 47bd d166 aa3d
000002f0: 9897 d83d a042 b8bc ca27 1e3d 1a56 273c
0.10232233 0.12098082 0.073593006 0.48661456 0.5551748 0.19415922 0.07985189 -0.05503111
-0.036162797 0.15841675 0.0943595 -0.14539964 -0.2943826 -0.16050361 0.23762374 -0.0032377676
0.054174755 0.0031663564 0.09200004 0.03773001 0.009775477 0.011859253 0.029863594 -0.050446708
0.072656274 0.016679382 0.033520035 -0.03371418 0.00078459835 0.040980347 -0.06841991 0.04605932
0.08842745 0.08749139 -0.08677896 -0.15835334 0.044233803 -0.04809823 0.09827237 0.078634486
0.057662167 -0.11895484 0.05072768 -0.044991717 -0.049536612 -0.070045255 -0.044387467 0.060303252
-0.059581865 -0.042129226 0.035688628 0.004650169 0.09180672 0.015944224 0.213009 0.22015634
0.09096615 -0.024738792 0.06849294 0.032920957 0.055441897 0.12156379 -0.074373715 0.07677285
-0.01575267 -0.02666777 -0.008681149 0.115657054 -0.05156959 0.052054446 -0.04705654 -0.027752884
-0.08100816 -0.095249504 -0.021555925 -0.002600383 0.0014032822 -0.014459175 0.0633446 0.030993044
-0.048863664 0.01023301 0.057886526 0.060881518 0.073054835 -0.25113344 -0.42133656 0.043597613
-0.018850483 0.056327567 0.07081509 0.055151355 -0.03530548 0.08851204 0.017097592 0.025018293
0.027579555 -0.041422337 0.026803596 -0.09188285 -0.021004498 -0.08166282 0.019046169 0.048859812
-0.0525054 -0.04611921 0.07751217 0.032500673 -0.09778543 0.06442219 0.011877471 0.09296709
0.02593605 -0.011910562 -0.13553312 -0.0055722576 0.21521816 -0.07634889 -0.073181756 -0.09652641
0.39778003 -0.18054655 -0.10458277 0.07253221 0.064167574 0.009701049 -0.2365806 -0.18253328
0.071896486 -0.049835365 0.013515655 0.10971015 -0.029567238 0.06643343 -0.057167444 0.045843296
0.057348415 0.05226735 -0.031048536 0.047572896 0.05390873 0.06937453 -0.0070976866 -0.08358059
0.013334822 -0.08523755 -0.091046475 -0.0064554266 -0.055167254 -0.054927316 -0.05237859 -0.07981219
-0.075616345 -0.077964194 -0.06520411 -0.0067652743 0.01696625 0.08505586 0.040663373 0.03540877
-0.036570955 0.039685942 0.054690693 0.05879874 0.08002542 -0.1741559 -0.02993751 0.09315738
-0.045803457 0.037404235 -0.06363719 -0.11077412 -0.22339216 0.047344398 -0.062860705 -0.076801814
-0.0155196935 0.04100226 -0.05380879 0.0004372803 0.0060442924 0.034758236 0.032599915 0.045701355
0.07883983 -0.05995262 -0.04869242 0.08320392 0.10575789 -0.022492707 0.038612165 0.010213399
