data/CNN_torch_weights.pth (torch, 46029 bytes, 5 tensors)

model.0.weight f4 [32, 1, 5]
0.11979627 0.0553691 0.05429519 0.035848353 0.4693603 -0.007082798 0.42382336 0.02102023
0.35852975 0.032605026 -0.11090715 0.3592424 0.19400278 -0.2916772 0.125443 0.01577374
0.1934689 -0.42000252 -0.55969524 0.8272944 -0.2705613 0.11650298 -0.24725933 0.4684672
-0.092774376 0.27598813 -0.24956274 0.3299131 -0.034040425 0.31849346 0.14974196 -0.0087374775
-0.015000267 -0.40531582 -0.13673387 0.27803972 0.111692734 0.30117577 0.16453403 -0.4101593
-0.3366652 0.3458077 -0.0057306364 0.23653549 0.41843238 -0.22673912 -0.051997084 -0.007699189
0.07654444 0.46292698 -0.30744922 -0.034777604 -0.30565146 0.32871643 0.2294271 0.16248414
-0.29803076 0.18728834 0.12166247 0.31384593 -0.45202845 -0.35636756 0.53347886 -0.01206838
0.32276985 0.22952537 0.030957954 -0.0928956 0.37042972 -0.424571 0.29563332 0.15555425
-0.33548573 0.3769366 0.30915195 0.26103416 0.18020882 -0.4014297 -0.20435297 -0.09700927
-0.5162115 0.15690678 -0.07603871 0.47673267 0.079965636 0.23958942 -0.56602544 0.39300638
-0.07036106 0.039645787 0.42611113 0.052384805 0.09835027 -0.06322332 0.31631127 0.23802517
-0.16111131 0.31203493 -0.106626906 0.39295498 0.1983498 0.10214842 -0.022022713 0.4236393
0.4300116 -0.42202386 0.36685163 0.07270221 -0.27570868 -0.37361994 -0.30329627 -0.15099022
-0.14844427 -0.27577835 0.0319475 0.40536326 -0.027067056 0.1092397 -0.42720824 0.3576177
-0.10262896 0.45506755 -0.35065466 -0.19770864 -0.53149414 -0.2393858 -0.42452663 -0.06554791
0.35553664 0.5085103 -0.4235371 -0.3799657 -0.105414376 -0.20361722 0.44355473 -0.40722626
0.44137767 0.41062117 -0.06818062 -0.2839113 0.12229158 -0.49451855 -0.52034783 0.1357184
-0.03655765 -0.58526576 -0.2834816 0.36633766 0.40779194 0.19775152 0.08841382 -0.04633945
-0.4936477 0.43031916 0.35047114 0.18894748 0.36733145 -0.13749854 0.011114324 -0.33713987
00000000: bf57 f53d b6ca 623d a264 5e3d b9d5 123d
00000010: fe4f f03e d116 e8bb 60ff d83e 9e32 ac3c
00000020: 3691 b73e d98c 053d 4a23 e3bd 9fee b73e
00000030: aaa8 463e b756 95be 2174 003e ee37 813c
00000040: b61c 463e 920a d7be 3048 0fbf 91c9 533f
00000050: 0387 8abe 1d99 ee3d 8d31 7dbe efda ef3e
00000060: 7e00 bebd 514e 8d3e 608d 7fbe 5fea a83e
00000070: f96d 0bbd 9311 a33e f555 193e a327 0fbc
00000080: aec3 75bc 8e85 cfbe f703 0cbe 395b 8e3e
00000090: 29bf e43d b633 9a3e 9c7b 283e 6600 d2be
000000a0: 625f acbe b50d b13e 10c8 bbbb 5c36 723e
000000b0: c53c d63e 4d2e 68be e5fa 54bd 7a49 fcbb
000000c0: 55c3 9c3d c404 ed3e fc69 9dbe f672 0ebd
000000d0: 597e 9cbe 854d a83e f0ee 6a3e 3e62 263e
000000e0: 7d97 98be 84c8 3f3e 2c2a f93d 6ab0 a03e
000000f0: 4670 e7be cf75 b6be 1292 083f 74ba 45bc
00000100: 1742 a53e b308 6b3e 899b fd3c 0c40 bebd
00000110: f7a8 bd3e 5f61 d9be 405d 973e 9d49 1f3e
00000120: c9c4 abbe d6fd c03e 2a49 9e3e 45a6 853e
00000130: a988 383e 3288 cdbe e841 51be ccac c6bd
00000140: 7026 04bf 2cac 203e 2fba 9bbd 4e16 f43e
00000150: 06c5 a33d ee56 753e 0be7 10bf 2238 c93e
00000160: 7619 90bd 9f63 223d 3d2b da3e 7391 563d
00000170: de6b c93d 3a7b 81bd 8df3 a13e dfbc 733e
00000180: 5dfa 24be 0bc3 9f3e 355f dabd 6531 c93e
00000190: 361c 4b3e 3133 d13d fa68 b4bc 40e7 d83e
000001a0: 7b2a dc3e 8313 d8be fad3 bb3e e5e4 943d
000001b0: b029 8dbe 1d4b bfbe a649 9bbe 2e9d 1abe
000001c0: c601 18be d232 8dbe 62db 023d c68b cf3e
000001d0: bbbb ddbc 10b9 df3d 0abb dabe ab19 b73e
000001e0: 222f d2bd 9dfe e83e 0289 b3be 2274 4abe
000001f0: 0010 08bf 8d21 75be 8e5b d9be fc3d 86bd
00000200: e608 b63e bb2d 023f dbd9 d8be dd8a c2be
00000210: 7ee3 d7bd 0881 50be 9b19 e33e f67f d0be
00000220: 41fc e13e f03c d23e 48a2 8bbd d25c 91be
00000230: 0274 fa3d 8931 fdbe 8435 05bf c4f9 0a3e
00000240: 79bd 15bd fad3 15bf 8024 91be 9c90 bb3e
00000250: 1bca d03e 607f 4a3e 4e12 b53d 6fce 3dbd
00000260: 64bf fcbe cb52 dc3e f470 b33e 737b 413e
00000270: de12 bc3e 6bcc 0cbe db18 363c 999d acbe

model.0.bias f4 [32]
-0.18855849 0.3016784 0.33433783 0.08474493 0.35383558 0.17670387 0.22194684 -0.26749924
0.07036465 0.3651896 -0.019315885 0.11352082 0.27933586 -0.34007722 -0.18878534 0.18680845
-0.009483234 0.016550455 0.37701213 0.40215227 -0.3318052 0.33526042 0.122478284 0.36176458
0.120184615 0.2503555 -0.3224777 -0.1483785 -0.2690354 0.27736065 0.43089613 -0.3744408
00000000: 7a15 41be 9775 9a3e 542e ab3e c08e ad3d
00000010: f029 b53e dcf1 343e 0846 633e a9f5 88be
00000020: 571b 903d 22fa ba3e 593c 9ebc 9b7d e83d
00000030: 1c05 8f3e 9a1e aebe f250 41be b74a 3f3e
00000040: 915f 1bbc d294 873c bc07 c13e e7e6 cd3e
00000050: 5fe2 a9be 41a7 ab3e e5d5 fa3d 3539 b93e
00000060: 5a23 f63d 992e 803e cc1b a5be 89f0 17be
00000070: 02bf 89be 3702 8e3e 6b9e dc3e b4b6 bfbe

model.2.weight f4 [64, 32, 5]
0.003107652 0.06965334 -0.07172301 -0.07213595 0.05382524 0.03787128 0.05265101 -0.020794746
0.049198426 -0.06851807 -0.027671214 -0.014774904 0.050881717 -0.02740191 -0.053021513 -0.009089507
-0.013284475 0.05672118 -0.023606766 0.03334599 0.006232217 0.042266235 -0.07385422 0.039134253
0.018844876 -0.06970171 0.06876049 -0.06882906 -0.07549101 0.0010940745 -0.005322486 -0.046397876
-0.037702158 -0.05658911 0.049271308 0.054951273 0.056844197 0.017789334 0.05298253 -0.014900237
-0.021534197 0.0053959265 0.05252637 -0.03105786 0.07192066 -0.015080065 -0.022647768 0.06600428
0.0069335713 0.07312885 0.0107892305 -0.039240588 -0.04425776 -0.030442562 0.009888156 -0.04874412
-0.029748634 -0.06487885 -0.024284765 0.05240359 0.05351744 0.0021807626 -0.026084771 -0.07373098
0.05836262 -0.054258008 0.038179018 0.034852535 0.05160957 0.036390156 -0.042983614 -0.033122815
-0.066728905 0.044026505 -0.02847602 -0.07781931 -0.06543723 0.054664165 -0.05522281 -0.02758272
-0.052414544 -0.07525712 0.0011170655 0.04965719 -0.0064704427 0.021721274 -0.048041657 -0.041059434
-0.0701947 -0.039956715 0.04203525 -0.043883815 0.038086448 -0.048691344 0.06267188 -0.037042342
-0.05366236 0.07295596 0.0142323105 -0.063060075 -0.049545035 -0.025781788 -0.0148215145 -0.052466433
-0.022948975 0.04386691 -0.007957533 0.02086541 -0.06946581 -0.07176228 0.021071114 -0.06705906
-0.07412513 -0.078907385 -0.05316898 -0.056934573 0.076319166 0.005948027 0.03227108 -0.043798935
-0.030546527 0.011794604 -0.05343984 0.02670378 0.009868756 0.02419921 0.025592573 -0.065664165
-0.044182617 -0.03278868 -0.02504424 0.035075895 0.021985441 0.02642479 0.06082531 0.02469477
-0.04505235 -0.039090578 0.004170753 0.060143 -0.048900686 0.050291143 0.04240288 -0.047887877
0.035429455 -0.066799 -0.019057184 -0.05400849 -0.06673722 0.002290084 -0.044588577 0.019131437
-0.008936675 -0.00259784 -0.031554956 -0.060383175 -0.048362963 0.010900073 0.021966495 0.015113898
0.014790725 0.04418639 0.035850532 -0.043105017 -0.0035435809 -0.059057094 -0.030147966 -0.021061148
0.03619532 0.047161918 0.06748089 0.03401496 -0.0016268746 -0.035746787 -0.045246467 -0.058291964
-0.2557908 0.09879677 0.082800396 -0.10628592 0.031090707 -0.04598038 -0.004852067 0.026332036
-0.037561502 0.06668919 -0.0009005157 0.068226784 -0.040874787 0.048113726 -0.0558524 -0.033545684
0.07133923 -0.0071671014 0.05029809 0.030738724 -0.003828316 -0.0057574417 0.053673748 -0.0302674
-0.06534896 0.021179074 -0.05023881 -0.019676002 -0.0038193509 -0.029122114 -0.042100176 -0.028519506
0.05175347 0.019512082 -0.013342747 0.01553674 0.009447317 0.105139285 0.0021038172 0.029506722
0.070680894 -0.04037998 0.010487118 -0.0349054 0.015660284 -0.023531422 -0.069373086 0.104422726
0.05935172 0.06914672 -0.057475865 0.0068774987 0.027609738 0.08159569 0.028824817 -0.03116163
0.045585185 0.027827231 0.034950282 -0.057540163 0.07237525 0.006167945 -0.046347607 -0.043934975
0.24283198 0.07076327 0.09410364 -0.18321976 -0.1066633 0.2692704 -0.06804487 -0.07683664
-0.087382995 -0.0394078 0.035078645 -0.060651448 0.025569702 0.0537197 -0.071514815 0.06361632
00000000: c0a9 4b3b 69a6 8e3d 83e3 92bd 03bc 93bd
00000010: db77 5c3d ea1e 1b3d 96a8 573d be59 aabc
00000020: 4a84 493d 3453 8cbd beae e2bc 7012 72bc
00000030: 5969 503d f879 e0bc 162d 59bd 28ec 14bc
00000040: 20a7 59bc 7854 683d fa62 c1bc ce95 083d
00000050: a037 cc3b 5c1f 2d3d e240 97bd 3d4b 203d
00000060: 9260 9a3c c5bf 8ebd 4dd2 8c3d 40f6 8cbd
00000070: 089b 9abd 0c67 8f3a 4068 aebb b30b 3ebd
00000080: 946d 1abd fcc9 67bd b6d0 493d 9614 613d
00000090: 76d5 683d f0ba 913c 3604 593d 2020 74bc
000000a0: 7c68 b0bc 50d0 b03b e425 573d 0e6d febc
000000b0: 244b 933d 6012 77bc d087 b9bc 402d 873d
000000c0: 0333 e33b 94c4 953d 50c5 303c bdba 20bd
000000d0: a047 35bd ae62 f9bc ef01 223c eaa7 47bd
000000e0: 68b3 f3bc 34df 84bd d8f0 c6bc 26a5 563d
000000f0: 1a35 5b3d 20eb 0e3b bbaf d5bc 4500 97bd
00000100: a50d 6f3d a53d 5ebd 9a61 1c3d 88c1 0e3d
00000110: 8e64 533d d80d 153d 960f 30bd caab 07bd
00000120: 2aa9 88bd 2355 343d 8b46 e9bc bb5f 9fbd
00000130: f403 86bd 88e7 5f3d 5031 62bd 28f5 e1bc
00000140: a2b0 56bd 6820 9abd 806a 923a 5665 4b3d
00000150: 0206 d4bb d0f0 b13c 54c7 44bd f02d 28bd
00000160: 3dc2 8fbd a7a9 23bd 282d 2c3d 84bf 33bd
00000170: 8900 1c3d 9370 47bd 1d5a 803d b6b9 17bd
00000180: 10cd 5bbd ef69 953d a32e 693c a425 81bd
00000190: bcef 4abd 5434 d3bc f0d5 72bc 0be7 56bd
000001a0: 7dff bbbc caad 333d 5060 02bc f0ed aa3c
000001b0: 1744 8ebd 1af8 92bd 549d ac3c 4356 89bd
000001c0: ebce 97bd 329a a1bd b7c7 59bd 3a34 69bd
000001d0: 394d 9c3d abe7 c23b ae2e 043d 8366 33bd
000001e0: b63c fabc 283e 413c bce3 5abd e3c1 da3c
000001f0: 90b0 213c 6c3d c63c 84a7 d13c ef7a 86bd
00000200: d5f8 34bd 6c4d 06bd 9429 cdbc beab 0f3d
00000210: d01a b43c cd78 d83c f623 793d b04c ca3c
00000220: d088 38bd 711d 20bd d0aa 883b 8258 763d
00000230: 164c 48bd 16fe 4d3d a4ae 2d3d 1426 44bd
00000240: 7a1e 113d eacd 88bd d01d 9cbc 0238 5dbd
00000250: 86ad 88bd 3c15 163b 83a2 36bd 88b9 9c3c
00000260: 226b 12bc 8640 2abb c53f 01bd 5954 77bd
00000270: 3e18 46bd 3896 323c 14f3 b33c 48a0 773c
00000280: cc54 723c cafc 343d 02d8 123d e38e 30bd
00000290: 6c3b 68bb dae5 71bd def8 f6bc 6e88 acbc
000002a0: 8b41 143d db2c 413d 6c33 8a3d 4553 0b3d
000002b0: da3c d5ba 396b 12bd 5c54 39bd 8ec3 6ebd
000002c0: 03f7 82be f655 ca3d 4193 a93d 6fac d9bd
000002d0: f0b1 fe3c ec55 3cbd 17fe 9ebb 48b6 d73c
000002e0: 17da 19bd 5894 883d 9610 6cba 7cba 8b3d
000002f0: 526c 27bd e612 453d 7cc5 64bd 3367 09bd
00000300: 4d1a 923d 01da eabb 5f05 4e3d c7cf fb3c
00000310: 7ce4 7abb eca8 bcbb 01d9 5b3d 57f3 f7bc
00000320: add5 85bd bd7f ad3c 36c7 4dbd 912f a1bc
00000330: 134e 7abb 8091 eebc 3c71 2cbd bda1 e9bc
00000340: 72fb 533d cdd7 9f3c 8a9b 5abc d08d 7e3c
00000350: ebc8 1a3c 4453 d73d 32e0 093b 15b8 f13c
00000360: 25c1 903d 7a65 25bd 29d2 2b3c f7f8 0ebd
00000370: ff49 803c f8c4 c0bc 7a13 8ebd 95db d53d
00000380: ca1a 733d cc9c 8d3d d06b 6bbd a45c e13b
00000390: d12d e23c a41b a73d 0622 ec3c ad46 ffbc
000003a0: 88b7 3a3d eff5 e33c 0728 0f3d 3caf 6bbd
000003b0: 7a39 943d 791c ca3b fdd6 3dbd 29f5 33bd
000003c0: f2a8 783e 55ec 903d 69b9 c03d f69d 3bbe
000003d0: 4a72 dabd cfdd 893e 1c5b 8bbd 875c 9dbd
000003e0: dbf5 b2bd 136a 21bd a0ae 0f3d a76d 78bd
000003f0: 8d77 d13c 3009 5c3d 5c76 92bd 4649 823d

model.2.bias f4 [64]
-0.07746213 -0.0517753 0.0640278 0.013183058 -0.04717797 0.025591267 0.07000539 0.05182762
-0.0003326952 -0.08489415 0.025131281 0.046612594 0.12813275 0.005125524 0.043926775 0.006931667
0.030629966 0.06047492 -0.061519317 -0.05378938 0.11222704 0.027543332 0.032770038 0.01456416
0.049728617 0.067383766 -0.045676436 -0.018877203 0.017667662 -0.060382742 0.07384001 0.08368781
0.006915441 0.027433358 0.025997726 0.024603602 0.03550569 0.058278296 0.02557114 0.046235163
-0.006620109 0.0098098405 0.044565175 -0.063497074 -0.038767006 -0.020880245 0.024042523 0.016138256
0.04695213 -0.04153776 -0.023942193 -0.07543337 0.02549651 0.01444554 0.03195022 -0.06085718
-0.07117348 -0.020782424 -0.061345097 0.07377892 0.07254662 0.045736313 0.06956414 0.07549707
00000000: 77a4 9ebd 5612 54bd 0221 833d c1fd 573c
00000010: b03d 41bd c7a4 d13c fc5e 8f3d 3349 543d
00000020: 986d aeb9 fcdc adbd 1ee0 cd3c d9ec 3e3d
00000030: 3b35 033e 03f4 a73b 90ec 333d 0a23 e33b
00000040: b2eb fa3c 8db4 773d aefb 7bbd 4152 5cbd
00000050: 4ad7 e53d 8ea2 e13c e039 063d 849e 6e3c
00000060: 3cb0 4b3d 8000 8a3d 3717 3bbd 5da4 9abc
00000070: c6bb 903c e553 77bd 6e39 973d 8464 ab3d
00000080: ec9a e23b ecbb e03c 2ff9 d43c 7e8d c93c
00000090: 6a6e 113d 39b5 6e3d 917a d13c 1561 3d3d
000000a0: 80ed d8bb 74b9 203c f989 363d c10a 82bd
000000b0: 27ca 1ebd 0c0d abbc d3f4 c43c 6034 843c
000000c0: e050 403d 8023 2abd 6b22 c4bc d07c 9abd
000000d0: 0fde d03c fcac 6c3c 3cde 023d 6145 79bd
000000e0: 67c3 91bd e73f aabc ff44 7bbd 6719 973d
000000f0: 5393 943d 0056 3b3d a577 8e3d 359e 9a3d

model.4.weight f4 [1, 64, 3]
0.053792477 -0.024106394 0.056622103 -0.061681427 -0.028293014 0.027378162 -0.04996054 0.1413942
0.11740976 0.07895013 -0.056630872 0.0045905137 -0.04526861 -0.013338221 -0.0884474 0.07095383
-0.03501037 0.039950795 0.048145074 0.050346732 -0.014062366 -0.16461559 -0.012079665 -0.0008200241
-0.050671715 -0.058421683 -0.0050786105 0.059311353 0.05853603 0.005748066 -0.021740217 -0.009514309
0.038608603 -0.058279615 0.123824075 0.04867502 -0.05453746 0.14381123 0.18016301 0.08694592
0.058781546 -0.031168805 -0.0047408696 -0.072382465 -0.041247 0.0099123595 -0.022995459 0.08337902
0.00012434018 0.04158786 0.06651861 0.06642258 -0.012769283 -0.05526886 -0.0073814257 0.020011222
0.10176175 0.104031235 0.090315916 0.054812253 -0.32513267 -0.28380853 0.010225428 -0.0017480884
-0.22298464 -0.07009217 -0.02947666 -0.05999245 0.031584337 0.3707203 0.06696941 -0.3248638
0.047908783 0.059635058 -0.033628516 -0.18443613 -0.10134833 -0.11435899 -0.13651375 -0.036811497
0.011046794 0.25646874 -0.019154897 -0.14774488 0.060023148 0.04905273 0.07793363 0.0715782
-0.041592866 -0.08949785 0.032078084 0.07472209 -0.016845463 -0.11113485 -0.11557605 0.04957521
0.026939575 0.07275233 0.05402446 0.12148226 0.051530186 -0.05465449 0.023427516 0.017329548
0.006071219 -0.0072759497 0.076603584 0.041999586 0.05438265 -0.031762727 0.07444579 -0.023694465
-0.00077730947 -0.07724566 0.059721686 0.04947108 -0.031615324 0.031756733 -0.057113197 -0.07213192
-0.101903684 0.044774577 0.024981754 -0.11136719 0.05251635 -0.0442156 -0.39981073 -0.32182702
-0.31004074 0.043742795 0.014800923 -0.09994424 0.09626909 0.14754124 0.23475036 -0.03460801
-0.007376998 -0.0049771233 0.052745245 0.0876977 -0.011825049 -0.011307963 0.015839892 -0.029649848
0.050280113 -0.10443842 0.015082961 0.007926968 -0.026955472 0.0017748632 0.047614373 -0.15379247
-0.22996975 0.056998774 -0.0008519163 -0.011212309 0.022492234 0.05218888 0.042531177 -0.05071272
0.042067293 -0.05705847 -0.14877875 -0.029736878 -0.009211827 0.088605255 0.030681504 -0.04521349
-0.010521499 -0.0144957965 0.028431484 0.06833825 0.04265172 0.0036747996 -0.0122013865 0.032133285
-0.054142218 -0.08826835 -0.074897185 -0.07418958 0.06497561 0.057053242 -0.04755284 0.06622328
0.07972434 -0.09823864 -0.0076500513 0.0061878692 -0.078221895 -0.10693863 0.06383248 0.0069125947
00000000: 8055 5c3d c67a c5bc 94ec 673d aaa5 7cbd
00000010: c0c6 e7bc 2b48 e03c 6ca3 4cbd a4c9 103e
00000020: 8774 f03d 9bb0 a13d c6f5 67bd 056c 963b
00000030: 946b 39bd 8e88 5abc e923 b5bd 3e50 913d
00000040: 0967 0fbd 72a3 233d c533 453d 6038 4e3d
00000050: d765 66bc fd90 28be cae9 45bc e3f6 56ba
00000060: 258d 4fbd 934b 6fbd 796a a6bb 76f0 723d
00000070: 7ac3 6f3d 465a bc3b 8a18 b2bc e7e1 1bbc
00000080: 0e24 1e3d 9bb6 6ebd 7a97 fd3d 755f 473d
00000090: ac62 5fbd 4043 133e a77c 383e b410 b23d
000000a0: ebc4 703d b955 ffbc 4c59 9bbb 423d 94bd
000000b0: 9df2 28bd 7367 223c f960 bcbc 9fc2 aa3d
000000c0: 5061 0239 0858 2a3d e93a 883d 9008 883d
000000d0: 4136 51bc 9a61 62bd e3df f1bb 93ee a33c
000000e0: 7768 d03d 540e d53d 8df7 b83d d082 603d
000000f0: ca77 a6be 5a4f 91be 8e88 273c 1d20 e5ba
00000100: 1656 64be 7c8c 8fbd 0979 f1bc a5ba 75bd
00000110: 945e 013d 0dcf bd3e 4227 893d 8c54 a6be
00000120: 003c 443d e443 743d 0ebe 09bd d3dc 3cbe
00000130: b78f cfbd 0c35 eabd 43ca 0bbe a7c7 16bd
00000140: 9dfd 343c df4f 833e bbea 9cbc 6f4a 17be
00000150: d5da 753d 84eb 483d ab9b 9f3d 9797 923d
00000160: 485d 2abd a64a b7bd 4f64 033d e507 993d
00000170: 7fff 89bc ab9a e3bd 23b3 ecbd 600f 4b3d
00000180: 62b0 dc3c 2cff 943d c148 5d3d b1cb f83d
00000190: 5111 533d 63dd 5fbd 10eb bf3c b2f6 8d3c
000001a0: 14f1 c63b 176b eebb 57e2 9c3d c207 2c3d
000001b0: 57c0 5e3d a219 02bd 0977 983d e51a c2bc
000001c0: 5bc4 4bba f932 9ebd ba9e 743d 30a2 4a3d
000001d0: 127f 01bd 5913 023d 87ef 69bd e6b9 93bd
000001e0: e1b2 d0bd 8c65 373d 89a6 cc3c 7b14 e4bd
000001f0: 621b 573d 6b1b 35bd feb3 ccbe 83c6 a4be
00000200: a9bd 9ebe a52b 333d 927f 723c 91af ccbd
00000210: bb28 c53d 0d15 173e 6662 703e 21c1 0dbd
00000220: bfba f1bb 2317 a3bb 660b 583d da9a b33d
00000230: dabd 41bc 0945 39bc a9c2 813c 3de4 f2bc
00000240: 85f2 4d3d cfe3 d5bd 861e 773c 1de0 013c
00000250: b9d1 dcbc 87a2 e83a 4a07 433d c67b 1dbe
00000260: 317d 6bbe 8c77 693d 2353 5fba d5b3 37bc
00000270: a241 b83c 02c4 553d 2c35 2e3d 24b8 4fbd
00000280: c14e 2c3d 24b6 69bd 7559 18be c19a f3bc
00000290: 34ed 16bc ac76 b53d c757 fb3c c831 39bd
000002a0: 5e62 2cbc c77f 6dbc 25e9 e83c edf4 8b3d
000002b0: 92b3 2e3d e8d4 703b 53e8 47bc 319e 033d
000002c0: 3bc4 5dbd 09c6 b4bd b263 99bd b5f0 97bd
000002d0: ef11 853d a9b0 693d c4c6 42bd 12a0 873d
000002e0: 8446 a33d 5731 c9bd 48ad fabb 9cc3 ca3b
000002f0: cd32 a0bd a402 dbbd 9aba 823d 0c83 e23b
